…
 layers.Conv2D(64, kernel_size = (3,3), activation='relu'),
 layers.MaxPooling2D((2, 2)),
 layers.Conv2D(64, (3, 3), activation='relu'),
 layers.MaxPooling2D((2, 2)),
 layers.Conv2D(64, (3, 3), activation='relu'),
 layers.MaxPooling2D((2, 2)),
 layers.Conv2D(64, (3, 3), activation='relu'),
 layers.MaxPooling2D((2, 2)),
 layers.Flatten(),
 layers.Dense(64, activation='relu'),
 layers.Dense(n_classes, activation='softmax'),
])
model.summary()
Model: "sequential"
_________________________________________________________________
Layer (type) Output Shape Param # 
=================================================================
conv2d (Conv2D) (None, 254, 254, 32) 896 
_________________________________________________________________
max_pooling2d (MaxPooling2D) (None, 127, 127, 32) 0 
_________________________________________________________________
conv2d_1 (Conv2D) (None, 125, 125, 64) 18496 
_________________________________________________________________
max_pooling2d_1 (MaxPooling2 (None, 62, 62, 64) 0 
_________________________________________________________________
conv2d_2 (Conv2D) (None, 60, 60, 64) 36928 
_________________________________________________________________
max_pooling2d_2 (MaxPooling2 (None, 30, 30, 64) 0 
_________________________________________________________________
conv2d_3 (Conv2D) (None, 28, 28, 64) 36928 
25
_________________________________________________________________
max_pooling2d_3 (MaxPooling2 (None, 14, 14, 64) 0 
_________________________________________________________________
conv2d_4 (Conv2D) (None, 12, 12, 64) 36928 
_________________________________________________________________
max_pooling2d_4 (MaxPooling2 (None, 6, 6, 64) 0 
_________________________________________________________________
conv2d_5 (Conv2D) (None, 4, 4, 64) 36928 
_________________________________________________________________
max_pooling2d_5 (MaxPooling2 (None, 2, 2, 64) 0 
_________________________________________________________________
flatten (Flatten) (None, 256) 0 
_________________________________________________________________
dense (Dense) (None, 64) 16448 
_________________________________________________________________
dense_1 (Dense) (None, 15) 975 
=================================================================
Total params: 184,527
Trainable params: 184,527
Non-trainable params: 0
_________________________________________________________________
model.compile(
 optimizer='adam',
 loss=tf.keras.losses.SparseCategoricalCrossentropy(from_logits=False),
 metrics=['accuracy']
)
14440/32
451.25
2058/32
64.3125
history = model.fit(
 train_generator,
…
